DL-Models/FashionMNIST-classification/model/convnet1.pt (torch_old, 118545 bytes, 14 tensors)

conv1.weight f4 [16, 1, 5, 5]
00000000: c918 82bc c0f3 cb3d 0d10 18bd bd8d 873d
00000010: 80cc 82bd 2c97 4b3d a944 1cbd 8bac 05bd
00000020: ce5b 53bd 7338 663c 2f7d 56be 7f50 e2be
00000030: 05d7 81be bce6 b63d 5cde 8abd 5742 75be
00000040: 9e58 ebbe d483 4cbe 5f47 c83d aed3 d6bd
00000050: 35ac 623c 0bab 9cbe b465 873d 839d b23c
00000060: baf8 b43d 8f2c 57be 98e5 7ebe e6bb 5a3e
00000070: 4603 963e 588e 7b3b d750 4abd 12b4 b23d
00000080: e883 ecbd 3f6e 0b3e 6c15 ea3d 0e92 053e
00000090: 6b0b 99bc e838 c6bd 68ad 03be afed 72bd
000000a0: aa55 443d 3562 bf3d 3586 09bc 0f1d 683c
000000b0: 6218 6bbe 8209 9f3d d095 bcbb ec37 a83d
000000c0: f259 683d f201 66be 3eaa b2bd 8720 0d3d
000000d0: 5de6 313a e9ad 743e eda7 35be b87e 123e
000000e0: e912 a13d 149f 9d3d 9765 2ebe 25c5 50bd
000000f0: a86a 4fbd de22 08be 5e4b 4fbe 7b9e e4bd
00000100: 23af 7a3e 2fb7 18be 0794 b93c e665 19be
00000110: 9110 ec3d 0f61 303d 06c5 f23d b77d a0bd
00000120: 6f87 283e decb a1bd 9fb5 ddbc af2e 5e3d
00000130: df39 df3d 2742 20be 1d55 3b3d 7984 513d
00000140: e2de 51bc 798f 3dbe 8ccb 14be 403d 22bc
00000150: fa00 353e 0d7a 7ebd ecd8 653d 19c9 9f3d
00000160: a54e 6ebe 05ae b6bd ffdd f13d 9f9e fb3c
00000170: e0c2 d5bd 908a 10be 588e d53d 79ed 7ebd
00000180: fa8b a8bd 8b96 313d 16a1 2d3e a966 803e
00000190: d829 033e f12e 993d f6e6 23be 0fde e7bd
000001a0: 5869 463e 4770 1b3d 878d b4bd bf8f 35be
000001b0: 48fa 0e3e 9349 733e d39d e0bd 3873 433e
000001c0: dabc 04be 7915 4e3e 8720 71bd e7c5 db3c
000001d0: e2c6 f73d 6dcd 17be af9a 3cbe 96d6 d3bd
000001e0: 2ee7 81be 24e5 263e 30af 9ebc 83e2 bf3d
000001f0: d17f 97bc 91ea d53d 4fc2 303e cd7c 97be
00000200: d729 0d3d 91ac 5bbe fa66 a13c 2d4c 4ebd
00000210: 7e9c 4ebc 1078 843d 1b27 10be d10d 1fbe
00000220: e23b 83bd c988 093e 4361 44bd 9895 aebd
00000230: bc7a d4bc ba4f 05bd 43a6 403e 9627 4fbe
00000240: 2d07 373e db17 243d e791 44bd 55ed 3a3d
00000250: ec1e 943d a13a 5d3e 44db 71be ff6c 523e
00000260: 30a5 16be 0d57 f1bd f838 163e 92b0 79bd
00000270: 638e 23bd af56 2b3e a72d b63d ff8c 8abd
00000280: 199b 103e 2263 47be 242a 5fbe 91ca 903d
00000290: 6ba8 2e3e 66a0 7c3d fcac 5d3e 2efa 86bd
000002a0: 42e4 233b a5c3 46be 1a5e 0fbd 12ec febd
000002b0: 2f95 803e a723 103e 9ff0 fbbb e244 683d
000002c0: d79a 213d 5145 d13d 8ba8 a4bd 4549 12be
000002d0: d244 cbbd 63c2 9e3d ded1 9ebc cea0 2e3e
000002e0: 443f 6abd 9e0f 81be 4037 5c3e 4b55 96bd
000002f0: c20a 7fbb e079 143e 80b3 80be bbf6 303e
00000300: 671e 343d ec07 ce3c d485 a6bd 26c6 163e
00000310: bdfa aebd a540 2cbe 22f3 ee3c 0fd8 943d
00000320: 77d3 2ebd 30c0 4e3e 0f2f 5cbe 1b26 bc3d
00000330: ecf0 0c3e dc71 c9bc 3bb4 043e f144 63be
00000340: 69a7 903e 9c73 54be ad90 b63d 487a 263e
00000350: d059 183e 4e46 cd3d 993c 89be 813f 15bd
00000360: 5c83 e8bd 7f1b 21bc 0d1d 2f3e 62d7 5ebd
00000370: 6f56 0d3d 6f2c 003e 1b19 2cbe cfb3 bc3d
00000380: 72bd 95bd 51e2 2ebc 84c8 0abe dd6f 5c3d
00000390: ed5b 4e3e 237b 003e 80bb fc3b a3ce 18bd
000003a0: aef0 8fbe ea57 61bd 1bc2 5b3e 960e 3f3d
000003b0: f3da 89be dc27 95be cec4 1dbe 79b1 3fbe
000003c0: b0cd 583e 9ddc 023e cede 803c 12fa ae3c
000003d0: 9a2d 1e3e 95e0 1b3d f5ff f4bd af6a c1bd
000003e0: 3357 523b 2337 b8bd cb40 02be 7c14 57be
000003f0: c627 423e a3df 04be ebbb d03c 679d 693e
-0.01588096 0.09958601 -0.037124682 0.06618831 -0.063866615 0.049704716 -0.038151417 -0.032635253
-0.051601224 0.0140515445 -0.20946191 -0.4420204 -0.2535936 0.08930728 -0.06780693 -0.23951088
-0.45966047 -0.19972163 0.09779238 -0.104895934 0.013835003 -0.30599245 0.06611195 0.021803623
0.08836503 -0.21013092 -0.2489227 0.2136074 0.29299372 0.0038384404 -0.0493935 0.08725752
-0.115485966 0.13616274 0.11429867 0.13043997 -0.018682202 -0.09678823 -0.12859118 -0.059308704
0.047933258 0.093449034 -0.008393814 0.014167084 -0.2295852 0.07765485 -0.0057551637 0.08213791
0.056726404 -0.2246168 -0.08723877 0.03445485 0.0006786341 0.23894466 -0.1773984 0.14306152
0.07864935 0.07696357 -0.17030941 -0.05096926 -0.050638825 -0.13294551 -0.20243594 -0.1116304
0.24480872 -0.14913629 0.022653593 -0.14980277 0.11526597 0.043061312 0.118539855 -0.07836478
0.16457914 -0.07900213 -0.027064143 0.05424374 0.1089971 -0.15650235 0.045735467 0.051151726
-0.012809487 -0.18511762 -0.14530772 -0.009902298 0.17676154 -0.062128115 0.056115076 0.07802028
-0.23272188 -0.0891991 0.118099205 0.030715285 -0.1043756 -0.14115357 0.104275405 -0.06223819
-0.082298234 0.04335646 0.1695598 0.25078323 0.12808931 0.074796565 -0.16006073 -0.11321651
0.19376123 0.037948873 -0.08816057 -0.17730616 0.13962662 0.23758535 -0.109676026 0.19086921
-0.12962666 0.20125379 -0.05886891 0.026827766 0.12098481 -0.14824457 -0.18418382 -0.103436634
-0.2537169 0.16298348 -0.019370645 0.093693756 -0.018493565 0.104451306 0.17261623 -0.29587403
0.03446373 -0.21452548 0.019702423 -0.050365616 -0.012610553 0.064682126 -0.14077418 -0.15532614
-0.06407906 0.13431086 -0.04794432 -0.085246265 -0.02593743 -0.032546736 0.18813424 -0.20229945
0.17873831 0.040061813 -0.047990706 0.045636494 0.072324604 0.21604396 -0.236188 0.20549391
-0.14711452 -0.11784182 0.1467017 -0.060959406 -0.039930712 0.16732286 0.08895426 -0.06765174
0.14121665 -0.1947141 -0.21793419 0.070698865 0.17056434 0.061676405 0.2164802 -0.06590687
0.0025007878 -0.1941057 -0.03500185 -0.124473706 0.25113818 0.140761 -0.0076885964 0.056706317
0.039454307 0.10218299 -0.080399595 -0.14285763 -0.09925236 0.0775192 -0.019387182 0.1705353
-0.05718924 -0.25207227 0.21505451 -0.07340487 -0.0038916324 0.14499617 -0.25136948 0.1728162
0.043974306 0.025150262 -0.081309944 0.14724025 -0.08543918 -0.16821535 0.02916867 0.072677724
-0.042682137 0.20190501 -0.21502326 0.091869555 0.1376378 -0.024590425 0.12959377 -0.22194268
0.28252724 -0.20747226 0.089143135 0.16257584 0.14878011 0.10023175 -0.26804045 -0.036437515
-0.1135318 -0.009833216 0.17100926 -0.054404624 0.034506258 0.1251695 -0.16806452 0.09213983
-0.073115245 -0.010674075 -0.13553053 0.05381762 0.20152254 0.12546973 0.0077127814 -0.03730644
-0.28113312 -0.055015482 0.21460764 0.04664477 -0.26924857 -0.29131973 -0.15407106 -0.18720044
0.21172214 0.1277947 0.015731242 0.021359477 0.15447083 0.038055975 -0.119628824 -0.094441764
0.0032095432 -0.089948915 -0.12720029 -0.21003908 0.18960485 -0.12975936 0.025480231 0.2281395

conv1.bias f4 [16]
00000000: 0165 2b3e 0002 033e e82f 99bd 234e 2a3e
00000010: 7e1c 393d 9df5 36be ff1f 74be 810d 2a3e
00000020: 358d 893e 7f2b 863c 0186 443e 5c38 c83d
00000030: bada f43d a48a 9dbb 4be5 84bb d875 71bd
0.16737749 0.12793732 -0.074798405 0.1663137 0.045193188 -0.17867132 -0.2384033 0.16606714
0.26865545 0.016378162 0.19191743 0.09776375 0.11955781 -0.004807787 -0.004055654 -0.058950275

batch1.weight f4 [16]
00000000: fc11 0b3f b7aa a43e 548b 513f 3f5f 233f
00000010: ec37 233f 705b 993e 2a70 e23e 2191 443f
00000020: b3b4 ba3e 105a 263f 5929 533e 832d ff3e
00000030: 7ffd c23e 25a4 a53e 55f2 8e3e ed42 b03e
0.54324317 0.32161495 0.8185322 0.6381721 0.63757205 0.29952574 0.442262 0.7678395
0.36465988 0.64981174 0.20621242 0.4983941 0.38084027 0.32351795 0.2791926 0.3442606

batch1.bias f4 [16]
00000000: a93d 98be 4a37 563d 3c09 abbe aa30 11bd
00000010: 0931 b0bc 3fab 39bd a427 29be 7490 15bd
00000020: 78f7 04be d67e 88be c08a 773c 4195 07be
00000030: 92cc 56be 6679 88bd 9551 04be 2df9 17be
-0.29734543 0.05229882 -0.33405483 -0.0354468 -0.021507757 -0.04532933 -0.16519028 -0.036514714
-0.12985027 -0.26659268 0.015108764 -0.1324053 -0.20976475 -0.0666378 -0.12921746 -0.14841147

batch1.running_mean f4 [16]
00000000: 38b8 633f b45b 043e 1ad2 683c 75bf 533e
00000010: fdf7 293d 6515 17be 5f4a 94be 14cd 253e
00000020: f65e 113e 1599 883e fb7d 4a3e da27 0b3e
00000030: 24a2 833e c755 99bd 4cb5 72bd 630b 0f3e
0.8895297 0.12925607 0.014210248 0.20678504 0.041496266 -0.14754255 -0.2896299 0.16191512
0.14196381 0.26679292 0.1977462 0.13589421 0.2570964 -0.07487064 -0.05925493 0.13969187

batch1.running_var f4 [16]
00000000: 76cb bc3f c6f1 7a3d aa52 253d 1c05 953d
00000010: c626 853d be48 693d ab25 1d3d ddca 133d
00000020: c68f e53d f49b 793e b777 6d3d 9755 a83d
00000030: 0ad9 0b3e d491 423e 9930 b83d 02c1 3d3e
1.4749591 0.06126573 0.040362038 0.07276365 0.06501536 0.056954138 0.038366 0.036082137
0.11209063 0.24375898 0.057975497 0.0821945 0.13657013 0.19000942 0.08993644 0.18530658

conv2.weight f4 [32, 16, 5, 5]
00000000: 0a78 323b 078b 7e3d 8329 57bd 9154 f4bc
00000010: 0a95 91bd fca9 3cbb 57a7 e5bd 8a6e c7bd
00000020: c72c 17bd faa7 71be 3aca 0cbe bc2d 06be
00000030: e993 01be 3439 e6bd 926e 61be 7e3a 98be
00000040: 4757 5bbe f2a7 f6bd ca33 55bd 20f7 3fbe
00000050: 7fea 2abe 1b34 60be 3534 acbc 1e36 97bd
00000060: 1c3d 53bd 98dc a7bd b18d 89bc dc52 06be
00000070: 40a4 443d 9cad ffbc 4983 6bbd a2a2 fbbb
00000080: 4877 63bd ae78 403d adfd 23be eaa9 cebd
00000090: 9939 64bd ca25 f5ba a754 8dbd 98d6 26bd
000000a0: 97c1 a33d 595c 0cbe 13be 543d 9124 1bbe
000000b0: 1fa9 d1bd 51cd b73d ce32 4c3c b22d 703c
000000c0: 873c 6a3b ea05 203e ee6a 733d 48ff 443d
000000d0: a497 93bc ef88 9f3c 2522 d3bc ef4d d23c
000000e0: 16a0 90bc cca2 babc 2cf7 4bbd ca60 a93d
000000f0: bea5 bebd 5ae2 10bd 47f2 e43d 186f 6d3c
00000100: 3562 4ebd f0e7 bb3d 69eb a63d 39fa 7ebc
00000110: e8cf 9abd 7b64 18be 3242 9cbd 912c 8a3d
00000120: 4c8b 13bd da51 3f3c 11b8 663d a433 e73d
00000130: a344 8bbd 27b2 3cbd ba12 5d3b 6cb5 803c
00000140: bab2 98bd 7c7f 323d 5e0f ca3d ff2b a83d
00000150: 461d 84ba b5d4 9f3c 69ce d3bd 2bc9 873d
00000160: a85a a7bb a64e 97bd 6f52 093e be20 0c3d
00000170: 783b 7bbd b609 02bd 459d 203d 2bef 7ebc
00000180: bf2c babd 23d7 bebd 6678 c53c 20d6 053e
00000190: 28c6 63bd 0f08 923c c84c eebd 3958 e7bc
000001a0: 5ba6 2abd 25e7 8abd 31f2 403c 6171 f73c
000001b0: be6b e23c 8e45 dabd 2023 4cbd c408 843c
000001c0: 2d1b 05be eb56 c53d 6749 0cbe 0076 28bd
000001d0: 25d4 103c 9943 91bc 7b6f 0fbe cccb bb3c
000001e0: ec1e b23a c39d 4f3c 041f d43c fdee 1bbc
000001f0: 705e be3d 4e2f aa3c 6181 df3d d68e b83d
00000200: 367b dc3c 96a4 e23c 7d80 1e3d 22a6 863d
00000210: c8e4 e73d 8d72 6a3d be86 2c3d e37c 363d
00000220: 1a14 97bd 924b 29bc 451a ecbc 2439 18bd
00000230: ebb9 4f3d 4fba a53c 2920 133d 3a2c 7bbd
00000240: 070d c33d 553a 42be c507 98bd c177 3e3e
00000250: cbbc 043d 65a7 e83d ab8a e9bc 0dcb b6bd
00000260: f989 c5bc 587f 493c ff9b e53c 6aee d6bd
00000270: 4f2c d4bd ff13 a939 995f 91bd fd19 0f3c
00000280: 59e8 fd39 b4ee 0dbd 0c28 61bc cb48 563d
00000290: 3643 873d 4f9a 783c 59a5 90bc 83b0 653e
000002a0: 0e3c 093d 96ea 8abc dbda 873d 4052 903b
000002b0: 6908 febc 37b7 b9bd 4849 493d be65 01bd
000002c0: 7a7f 3a3d ecdd 233d 5c9b 01bd bd08 74bd
000002d0: 87e1 04bd 0e8f a13d 688c c43c b01a 063e
000002e0: 6fcc e83c f1cc 45bd 32ea 9ebd 9557 a1bd
000002f0: e396 133d 5e9a 7b3c 5424 b6bd 88ff 0b3b
00000300: 0ae3 ad3c 3b1d 8a3d a76a f43c 01b6 72bd
00000310: 56e2 7fbd 8b6c aa3c cadf 05bd adca 25be
00000320: c333 b3bd f878 50be 391b 40bd 7a45 78bd
00000330: ddf6 05be fb5d 803d 5430 26bd a890 103d
00000340: 7e08 af3d b538 a4bd bf86 843d 5242 d73c
00000350: 0857 5bbc 9dc7 833b 9cf8 e4bc 6814 2cbd
00000360: fbd5 a03b 7ca2 a23d 4a59 cb3c 5e81 8fbd
00000370: e8c5 d23d f85c 6fbd ba85 713d 5af1 35bd
00000380: 0858 72bd 1442 fc3d 72ff 2abd 796e 10bd
00000390: b17b 89bd 131d 42bd dcdb 063c 64ac 33bc
000003a0: 8b5b 12bd cced 8fbc 6dd5 34bd d197 2f3c
000003b0: f5d9 16be 79c1 90bd 05f9 913d c0ff ffbc
000003c0: 294f 643e 725f 8dbd 40da 6dbd 7d6c 54bd
000003d0: 9951 c8bc 84d5 7b3d c6ac d93a a6ac ff3c
000003e0: 2f32 323d 568a 45bd f9df 183e d140 133e
000003f0: cfc9 21be 02e1 d6bd e9be 1b3d ea9a de3d
0.0027232193 0.062144306 -0.052529823 -0.02982548 -0.07108505 -0.0028787842 -0.11213558 -0.097378805
-0.036907937 -0.23599234 -0.13749018 -0.13103384 -0.1265408 -0.112413794 -0.22014835 -0.29732126
-0.21420012 -0.12043752 -0.052051343 -0.18746614 -0.16691016 -0.21894877 -0.021020988 -0.07383369
-0.05157195 -0.08196372 -0.016791197 -0.13117546 0.048008204 -0.031210713 -0.05749825 -0.0076792995
-0.055533677 0.04699009 -0.16014738 -0.10091002 -0.055718992 -0.0018703279 -0.06900912 -0.040731996
0.07995909 -0.13707103 0.05193908 -0.15150668 -0.102373354 0.08974708 0.012463285 0.014659332
0.0035741644 0.15627256 0.059428148 0.048095018 -0.018016644 0.019474475 -0.025773117 0.025671927
-0.01765446 -0.022782706 -0.04979627 0.08270414 -0.093089566 -0.035372116 0.11179023 0.014491819
-0.050386626 0.09175098 0.0815037 -0.015562587 -0.07559186 -0.1488208 -0.07629813 0.067467816
-0.036021516 0.01167723 0.056327883 0.112891465 -0.06800201 -0.046068337 0.0033733086 0.015711509
-0.074559644 0.04357861 0.09866212 0.082115166 -0.0010079525 0.019510606 -0.10342104 0.066301666
-0.0051072426 -0.07388048 0.13410352 0.034210913 -0.06133601 -0.031747542 0.039212484 -0.015559952
-0.09090566 -0.09318378 0.024105262 0.13069963 -0.0556089 0.017826108 -0.116357386 -0.02824031
-0.041662555 -0.067823686 0.011776493 0.03020543 0.027639266 -0.10657798 -0.049838185 0.016117461
-0.12998648 0.09635719 -0.13699876 -0.04112816 0.008839642 -0.017732428 -0.1400737 0.022924326
0.0013589538 0.012671891 0.025893696 -0.009517428 0.09295356 0.02077451 0.10913349 0.09011619
0.02691422 0.027666371 0.038696755 0.06574656 0.113229334 0.05723815 0.042120688 0.044552695
-0.07376881 -0.010332959 -0.02882112 -0.03716387 0.050714415 0.02023044 0.035919342 -0.061321475
0.09523969 -0.18967564 -0.07423357 0.1860037 0.03240661 0.11360053 -0.028508505 -0.089254476
-0.024113642 0.0122984275 0.028028486 -0.104946926 -0.10360014 0.0003224909 -0.07098312 0.008734223
0.00048429033 -0.034651473 -0.013742458 0.052315515 0.06604616 0.015173509 -0.017656969 0.22430615
0.03350454 -0.016957562 0.0663354 0.004404336 -0.03100987 -0.090681486 0.049142152 -0.03159117
0.045531727 0.040006563 -0.031642303 -0.059578646 -0.032441642 0.07888614 0.023992732 0.13096118
0.028417794 -0.04829115 -0.07759513 -0.07878033 0.03603257 0.015356628 -0.08893648 0.0021362025
0.021226425 0.067438565 0.029836012 -0.059255604 -0.06247171 0.02080371 -0.032684125 -0.16190596
-0.08750107 -0.20358646 -0.04690096 -0.060613133 -0.13082452 0.06267925 -0.040573433 0.035294205
0.08546542 -0.080186285 0.06471013 0.026276741 -0.013387449 0.0040215985 -0.027950577 -0.04201165
0.004908321 0.07941148 0.02482285 -0.07007097 0.10291654 -0.05843827 0.058965422 -0.044419624
-0.059165984 0.12317291 -0.041747518 -0.035261605 -0.067130454 -0.04739101 0.0082311295 -0.010966394
-0.035731833 -0.017569445 -0.04414885 0.010717348 -0.14731582 -0.07068152 0.07127575 -0.03124988
0.22295822 -0.069029704 -0.058069468 -0.051861275 -0.024452971 0.06148292 0.0016607277 0.031210255
0.04350489 -0.04822763 0.14929189 0.14380194 -0.1579964 -0.104921356 0.038023863 0.10869391

conv2.bias f4 [32]
00000000: 746d f43c 0690 61bc a003 843c a7bf 2abd
00000010: a75b 96bc cbb6 62bd 3a8e 33bd 36bb ab3c
00000020: 9790 9ebd 39b5 ef3c bbd4 5a3d c605 3bbc
00000030: 0df7 263d 08b8 59bd 8ed9 5d3d 96fd 30bd
00000040: f02f 9a3d 2298 86bc b1c7 463d 2851 163c
00000050: 3fca 9e3d 6fd6 4ebc e640 6dbc bc12 563d
00000060: 01bf 0b3c 02af 1bbd 9298 53bd 14cb 043c
00000070: 0489 253d 879a a5bc 3dc4 95bc ee05 773c
0.029837348 -0.013767248 0.01611501 -0.04168668 -0.01835425 -0.055350106 -0.04383681 0.020963293
-0.07742422 0.029261218 0.05342553 -0.011414951 0.04076295 -0.05315402 0.054162554 -0.04321059
0.075286746 -0.016429964 0.048530284 0.009174623 0.07753419 -0.012624367 -0.014480805 0.05226396
0.008529426 -0.038008697 -0.051659174 0.008105058 0.04041387 -0.020215286 -0.01828205 0.015077097

batch2.weight f4 [32]
00000000: 7bfe 7e3f dce8 243f a466 203f bfe7 3a3f
00000010: 4ce7 423f 9440 4b3f 2f4f 2a3f c513 7d3f
00000020: f64b 223f 91eb 6c3f 2d9a 043f ebbb 2f3f
00000030: f3a8 703f d3ef fa3e b3cf 4b3f c249 3e3f
00000040: ebcc 823f a18c 553f 0cf1 733f 2861 913f
00000050: bfa9 053f 456d 2a3f d953 283f ae82 2d3f
00000060: 67c6 903f 0826 eb3e 583a 1b3f 6496 7a3f
00000070: 3b10 003f c786 343f 61e6 793f 910c 433f
0.99607056 0.64417815 0.6265662 0.73009866 0.7613418 0.79395413 0.66527075 0.9885829
0.6339716 0.92546946 0.51797754 0.68646115 0.94007796 0.49011096 0.796138 0.74331295
1.0218786 0.8341771 0.95289683 1.1357775 0.52212137 0.6657298 0.6575294 0.67777526
1.1310548 0.45927453 0.606359 0.9788573 0.50024766 0.70518154 0.97617155 0.7619105

batch2.bias f4 [32]
00000000: 79f7 a3be 9e05 3bbe 92a4 6abe 59d7 1dbe
00000010: d4ed 4dbe e811 50be 27d1 10be 0b90 93be
00000020: bbcd 63be 6b44 8abe 958f 55be d877 1ebe
00000030: 5242 9bbe 2016 09be e1e9 69be e3b4 febd
00000040: 9e14 a8be fa59 78be 6c63 9ebe 2f20 94be
00000050: ab91 31be ecd1 4abe b0a0 63be 4f38 71be
00000060: cfe8 37be 57ee debd 5d6c 17be 367a 6fbe
00000070: 2101 12be 2864 6dbe 19ab 89be 5674 3ebe
-0.32024744 -0.18263862 -0.22914341 -0.1541418 -0.20110255 -0.2031933 -0.14142285 -0.28820834
-0.22246449 -0.27005324 -0.20855553 -0.15475404 -0.30324036 -0.13387346 -0.22843124 -0.12436845
-0.3282823 -0.24253073 -0.30935228 -0.28930804 -0.17340724 -0.19806641 -0.22229266 -0.23556636
-0.17959903 -0.108853035 -0.14787431 -0.23386464 -0.14258243 -0.23182738 -0.2688835 -0.18599066

batch2.running_mean f4 [32]
00000000: 6292 41bf 1b61 37be 70cb e8be a367 6cbf
00000010: eaff 4dbd 2b16 bcbe 9c4d b1be 97cf a4be
00000020: 08d2 bbbe 79fc a9be b2cb a8be f6b5 bfbe
00000030: 716c 10bf 900f 6bbe c8d8 5fbe d45b 91be
00000040: 112c 62bd 0c3f bd3d 5d89 cd3d 897e 253d
00000050: 25b9 37bf 0c06 a03c 293f 13be 2adf 6ebf
00000060: 322c 87bf f00f 29be 38ec b2be 15c6 0dbf
00000070: 03de 9e3e 008c d0be c1dd cabe 10d6 823e
-0.7561399 -0.17908137 -0.4546771 -0.9234564 -0.050292887 -0.36735663 -0.34629524 -0.32189628
-0.3668368 -0.33200434 -0.32967907 -0.37443513 -0.5641547 -0.22955155 -0.21860039 -0.28390372
-0.055217806 0.09240541 0.100359656 0.040403876 -0.71766883 0.019534133 -0.14379562 -0.9330927
-1.0560362 -0.16509986 -0.34945846 -0.55380374 0.31028756 -0.40731812 -0.3962231 0.25553942

batch2.running_var f4 [32]
00000000: 34c0 6a3e 0c31 a73e 7096 523e 3805 863e
00000010: 43b3 7b3e 23e2 943e c9c2 743e 906e 833e
00000020: aa5a 883e 1ec3 503e d8fb 893e 35c0 6b3e
00000030: 27f7 8b3e 2b93 8e3e 6818 3d3e 336c 213e
00000040: 8263 673e 20e4 983e ebf7 893e 3e2f 963e
00000050: 5bec aa3e 1b88 913e 5ae6 783e d12e f93e
00000060: 32b2 3e3f 0221 5d3e ff58 453e cdd5 a73e
00000070: da8b 953e ee18 933e 8110 8b3e fa92 0f3e
0.22924882 0.32654607 0.205652 0.26175857 0.24580102 0.2907878 0.2390243 0.2567029
0.2663167 0.20386931 0.26949954 0.2302254 0.27337 0.27846655 0.18466341 0.15763931
0.22596553 0.29861546 0.2694696 0.29332918 0.3338345 0.28424153 0.24306622 0.4866853
0.74490654 0.21594623 0.1927223 0.32780305 0.2920826 0.28729957 0.2716103 0.14020911

fc.weight f4 [10, 1568]
00000000: 3ed5 18bd 4293 9d3d c2df 103d 6b68 efbd
00000010: 455e 333d 2daa f5bc 4049 fc3c c268 e03c
00000020: 497e 593d 5f54 063c f39a 9e3c 42e6 9a3b
00000030: 311d 24bc 58f0 5f3b 7fbe 843d 7fa1 2c3c
00000040: f12d 1e3d 693d 6d3b 1051 86bd 0ef9 5c3c
00000050: fec2 debd 98a5 cf38 2e7d 0ebd 8048 c3b9
00000060: 75fe 5f3d 9727 5bbd 22d4 903b 294f 9ebd
00000070: b8b2 833c 2cfd 4dbd e458 4c3c 71dc 693c
00000080: eca5 9ebd 6deb 5bbd fdb0 c4bd a71b 27bd
00000090: c558 0bbd b07e a13d 840e 293d c057 b83d
000000a0: 6dbc b7bd 3bc5 71bb 4c3d a4b9 e820 ac3d
000000b0: aea6 98bc d7f9 0bbc e0e8 b33d 93aa e4bd
000000c0: d6b3 08bd c8f4 8ebc 6833 67bd ab36 053d
000000d0: 8d4b 7bbc 485f cebd 4bbd debc b9d8 59bc
000000e0: 2347 6fbd 0b93 03bc 450f cbbd de93 1d3e
000000f0: 8262 203d 35d9 f0bc 08b7 6e3d 16ce f03d
00000100: bd3b 7abd 89f7 d23d 98a9 2cbe 9a47 cf3d
00000110: 2088 c33c 6489 f03c 4241 7d3c 14ce efbc
00000120: 4527 1dbd b6fd e4bd cb94 a3bd 0d80 20bd
00000130: b341 903c 195d 533d e6d3 2b3c 6dea 1dbd
00000140: f081 b93d d2e7 f23c dd92 e738 baae e53d
00000150: 1bd0 e93c 5748 96bd 1795 b33b 7092 e33d
00000160: 019f 0fbd e171 ed3c d401 bc3d 158f d23d
00000170: f6a7 a4bd 079d 2f3d 92f5 873d b779 ddbd
00000180: a826 29bd 1547 c0bb 81d1 fa3d 5fbe d03c
00000190: 042f 213c d5ba 1dbd 014b b73c 0648 083c
000001a0: d2c9 debc 4f83 963c 164a d43d 5265 64bc
000001b0: 1410 073d ee7d 033d d915 7dbc 6982 6f3e
000001c0: 174b 1b3d 5f30 ae3d 55f9 493c 8ba3 aa3b
000001d0: 9325 7bbc 42a6 673d 1a14 1c3e 1c46 02be
000001e0: fbcb 9f3d 8d4d 1fbd f7cd c53d 51da 7bbb
000001f0: b93d 0b3c 974d b93d 416d 89bc 4dfe b43c
00000200: 7aab 4fbe 6206 b2bd 4bab 81bd 6a58 b2bd
00000210: 0971 e8bd facd 94bd a3ef c1bb 6848 04bd
00000220: 4653 343d a167 aeba 8e93 14bd 6550 92bd
00000230: eaca ac3c 302a 3fbc 7c7a a33d 0f77 d73c
00000240: d5de b4bd 960a 93bd 2431 22be d220 cbbd
00000250: 4951 66bd 76f3 8bbd a943 e2bc f32d 093e
00000260: c11b b5bc 5370 723d 4df8 5c3d f7d6 a03d
00000270: e78d c03c f0f7 4cbd 32d2 323c cb1f 033e
00000280: dba5 963d fb29 d43d bcef b73d e365 28bd
00000290: 75e4 063d 6cfd 833d edbc 02bd 1ad2 c9bd
000002a0: f15f c33b 2674 953c 6f31 1d3d ad74 8abd
000002b0: 4d14 453b 687a 20be 2dd7 f53c 9b1e f7bc
000002c0: 6fec efbd 1348 a73b ff6d d5bc c329 bbbd
000002d0: 17d3 18be 9bfa 1cbd 1eb9 acbc 066d f43d
000002e0: c825 073c c51a c83c d5a6 35bc 6a9c 68bd
000002f0: b679 343c 6839 1fbd f550 8cbd 7eba 353c
00000300: 3042 5b3d cf2a 923d 5dbd 023d ab45 a0bc
00000310: 311f 08be 5285 f83c d153 193c f70a 113e
00000320: 88b0 38bd bff0 0abe 8672 73bd 2452 5abd
00000330: 4869 143d 16a5 dcbb f0ef e6ba da44 d8bd
00000340: fbe3 9dbc d820 593d eccf 863d 15a6 79be
00000350: 13e2 b03d 72c7 093d 0485 67bd 362a b73d
00000360: 28b2 113d bfb3 b3bc 6347 22be 6da7 0ebb
00000370: cbbb 05be 917a 6a3c 2603 27bd 641a 7ebd
00000380: d543 8cbb d58c adbd 30eb 533c 5d1d f53d
00000390: 0a3b 7d3b 5a7e db3c 3b4f 50be 937a 903d
000003a0: 1e1a 91be 8149 82bd d592 c8bd c07b 4c3d
000003b0: 3719 633c 075f 0cbe 2365 04bd babd 4dbc
000003c0: 384d c0bd 6681 a63d 309e f0b9 5893 c13b
000003d0: b3a9 45bd 1ae1 25bd 1fb0 64bc 9b60 ba3c
000003e0: 8e4b 7ebe 9667 c83d 0cd7 cd3d d14d 443c
000003f0: 489f 443c c9bb 4cbd 4c97 92bb faf7 b1be
-0.03731274 0.07694103 0.035369642 -0.11689838 0.043791074 -0.029988373 0.030796647 0.027393702
0.05309895 0.008198827 0.019360995 0.004727156 -0.010016725 0.0034170356 0.06481647 0.010536551
0.038618032 0.0036199933 -0.0655843 0.013487114 -0.108770356 9.9013734e-05 -0.03478735 -0.00037247315
0.05468603 -0.053504553 0.0044198195 -0.07729942 0.01607643 -0.05029027 0.012472365 0.014273749
-0.07746491 -0.053691316 -0.0960407 -0.040797856 -0.034020204 0.07885492 0.04127361 0.09001112
-0.08971486 -0.003689124 -0.00031326187 0.08404714 -0.018634167 -0.008543453 0.08784652 -0.11165347
-0.03337463 -0.017450705 -0.05644551 0.03252284 -0.015337837 -0.10076767 -0.027189871 -0.0132963
-0.05841745 -0.008030663 -0.09915022 0.15388438 0.039156444 -0.029400447 0.05828002 0.11758058
-0.061092127 0.1030112 -0.1686157 0.10121079 0.02386862 0.029362388 0.015457453 -0.02927307
-0.03836753 -0.11181204 -0.079873644 -0.03918462 0.017609453 0.051602457 0.010487532 -0.038553644
0.09057987 0.029651556 0.00011042294 0.11214967 0.028541615 -0.073380165 0.0054804194 0.11111915
-0.035063747 0.028984966 0.09180036 0.10281197 -0.080398485 0.042874362 0.06638636 -0.10814231
-0.04129663 -0.0058678486 0.12246991 0.025481401 0.00983787 -0.038508255 0.022374632 0.008317953
-0.027195845 0.01837316 0.10365693 -0.013940172 0.032974318 0.032102518 -0.015447103 0.23389591
0.037913408 0.0850532 0.012327512 0.005207484 -0.015328783 0.05655504 0.15242043 -0.12722057
0.07802578 -0.038892318 0.09658425 -0.0038429687 0.008498603 0.09048002 -0.01677573 0.022093916
-0.20280257 -0.08692624 -0.063315 -0.0870827 -0.11349685 -0.072658494 -0.0059184595 -0.032295614
0.04402473 -0.001330603 -0.03627353 -0.0714424 0.02109285 -0.011667773 0.079823464 0.026301889
-0.08831564 -0.071797535 -0.15839058 -0.09918369 -0.056229863 -0.06833546 -0.027620154 0.13396434
-0.02210796 0.059189152 0.053947736 0.07853501 0.023505164 -0.05004114 0.010914372 0.12805097
0.07355853 0.1035957 0.089812726 -0.04111279 0.032932717 0.06444821 -0.031918455 -0.09854527
0.005962365 0.01824386 0.03837722 -0.067605354 0.0030071915 -0.15671694 0.03000983 -0.030165961
-0.11715018 0.0051050275 -0.026053427 -0.09138825 -0.14924274 -0.038324933 -0.021084365 0.11934857
0.008248754 0.024426827 -0.011087139 -0.056789793 0.011015346 -0.038873106 -0.06851379 0.0110918265
0.05352992 0.07137071 0.031918872 -0.01956447 -0.13293149 0.03033701 0.009358362 0.14164339
-0.04509023 -0.135684 -0.05943539 -0.05330099 0.036233217 -0.006733547 -0.0017619114 -0.105600074
-0.019273749 0.053009838 0.06582627 -0.24379762 0.0863687 0.03363747 -0.056523338 0.08943598
0.035570294 -0.021936296 -0.15847544 -0.0021767274 -0.13059919 0.014311449 -0.040774487 -0.062036887
-0.004280547 -0.08474127 0.012934491 0.11968491 0.0038639926 0.026793648 -0.20342724 0.07054629
-0.28340238 -0.06361676 -0.09793631 0.049922705 0.013860992 -0.13708125 -0.032323014 -0.012557441
-0.09389728 0.081301495 -0.00045894226 0.0059074573 -0.04825754 -0.040497877 -0.013958006 0.022751143
-0.2483351 0.097853824 0.100507826 0.0119814435 0.012000866 -0.049983773 -0.0044736024 -0.34759504

fc.bias f4 [10]
00000000: 957b 3fbc e970 02bd c4b3 9cbc f19d 183c
00000010: 501c 90bc ee53 f53b 6a22 aa3b 3621 b03c
00000020: 57f8 c5bb 4ebf 4abc
-0.011687179 -0.03184596 -0.019128688 0.009315 -0.017591625 0.007486812 0.0051920908 0.021500211
-0.0060415673 -0.012374712
